5.2-ONNXRuntime/my_image_classifier.onnx (onnx, 249755 bytes, 7 tensors)

conv1.weight f4 [6, 1, 5, 5]
0	0xbdceb417	-0.10092943
1	0x3d29a02d	0.04141252
2	0x3df32a6d	0.118733265
3	0xbe11b1a8	-0.14227927
4	0x3cfd7f5a	0.030944515
5	0xbd327eda	-0.043578006
6	0xbe2af8db	-0.16696493
7	0x3ac03e67	0.0014667035
8	0xbd794760	-0.060859084
9	0x3e23a6a3	0.15981536
10	0x3cac8c1a	0.0210629
11	0x3d73bc93	0.05950601
12	0x3e299b5f	0.16563176
13	0x3d306fcd	0.04307537
14	0xbd284bed	-0.041088033
15	0xbe41783a	-0.18893519
16	0xbd8b52e0	-0.068029165
17	0xbe28be10	-0.16478753
18	0xbcb86fc0	-0.022514224
19	0x3e391ef5	0.18078215
20	0x3e26a6e5	0.16274603
21	0x3e3ba9d7	0.18326508
22	0x3c9f1f4d	0.019424105
23	0xbdb962bd	-0.09052036
24	0xbdcd45b0	-0.100230575
25	0x3cc3a573	0.023882603
26	0x3d4bc660	0.049749732
27	0xbdedbcca	-0.11608274
28	0xbe4277e5	-0.18991049
29	0x3db6f443	0.08933308
30	0x3dab69a7	0.08369761
31	0xbe3863a3	-0.18006758
32	0x3b11fe00	0.002227664
33	0xbd56fbe7	-0.052486327
34	0xbde9de73	-0.11419382
35	0xbe0acea8	-0.13555396
36	0xbe0958df	-0.13412808
37	0xbdec7b70	-0.11546981
38	0xbdf02b0a	-0.11726959
39	0x3d20c17a	0.039247014
40	0xbe256848	-0.16153061
41	0x3d521b87	0.051295783
42	0xbe2bc4ea	-0.16774336
43	0x3e305da7	0.17223226
44	0xbd304740	-0.0430367
45	0xbbbb9ccd	-0.005725479
46	0xbdd4832d	-0.10376582
47	0xbd160ce7	-0.0366334
48	0xbe0c6ecf	-0.13714145
49	0x3db3d7cd	0.08781395
50	0x3daa28ad	0.083085395
51	0xbe25c3f0	-0.16188025
52	0xbe3126c2	-0.17299941
53	0x3c104e9a	0.008807803
54	0x3d0c9aad	0.034327198
55	0xbdc784fd	-0.097421624
56	0x3d7e5427	0.062091973
57	0x3e0af523	0.13570075
58	0xbe2d702d	-0.16937323
59	0x3bd34633	0.0064475774
60	0x3e1e3303	0.15449147
61	0x3a84d800	0.0010135174
62	0x3da8a903	0.082353614
63	0x3df8f673	0.121563815
64	0x3d996f83	0.07491972
65	0x3c8dde9a	0.017318059
66	0x3e2c9e25	0.16857202
67	0x3d57b27a	0.052660443
68	0x3e1ac30f	0.15113471
69	0x3d68112d	0.056657005
70	0x3cabc640	0.020968556
71	0x3e3c7b48	0.18406403
72	0xbd7b8c27	-0.061412957
73	0x3de7cee0	0.11318755
74	0xbd53f68d	-0.0517488
75	0xbb8d5a00	-0.0043137074
76	0x3e4c1c8b	0.19932763
77	0x3e15d140	0.14630604
78	0x3e3c3622	0.18380025
79	0xbd8d3da0	-0.0689652
80	0x3d182940	0.037148714
81	0x3de8ef0a	0.11373718
82	0xbe142eef	-0.14471029
83	0xbd2e1753	-0.042502712
84	0xbdd2fd63	-0.10302236
85	0x3d19386d	0.037407327
86	0xbdb619d7	-0.08891647
87	0x3e0b7f52	0.13622788
88	0x3d8eed50	0.069788575
89	0x3deb8a70	0.11501014
90	0x3e1c28a8	0.15249884
91	0xbd3cb8da	-0.046074726
92	0xbdc399fa	-0.09550853
93	0xbb53fd33	-0.0032346963
94	0x3abd1f33	0.0014428854
95	0xbe05b0fd	-0.13055797
96	0xbe0f1fbb	-0.13976948
97	0x3cdc0280	0.02685666
98	0xbd78b987	-0.060723808
99	0xbe30f3ba	-0.17280474
100	0x3df90c50	0.121605515
101	0xbdf585ad	-0.11988387
102	0xbdab8ff3	-0.083770655
103	0xbcd57c80	-0.026060343
104	0x3e3f52ff	0.18684004
105	0x3d515fda	0.0511168
106	0xbabfd000	-0.0014634132
107	0x3e4adb7b	0.19810288
108	0x3e34215f	0.17590855
109	0x3e393147	0.18085204
110	0xbd559553	-0.05214436
111	0x3e0b04ab	0.13576
112	0x3cf05a5a	0.029339958
113	0xbe175625	-0.14778955
114	0x38bf4000	9.119511e-05
115	0xbe414f1b	-0.18877833
116	0x3d9c3470	0.07627189
117	0xbd517aa7	-0.05114236
118	0x3dab6447	0.08368736
119	0x3e4b581d	0.19857831
120	0x3e406ef2	0.18792322
121	0x3e307d47	0.1723529
122	0x3e1f5fe2	0.1556392
123	0x3d2cd08d	0.042191077
124	0x3d5a2b40	0.053263903
125	0xbd89b840	-0.06724596
126	0xbd9bc910	-0.07606709
127	0xbd9ace17	-0.0755884
128	0xbe19c145	-0.15015133
129	0xbe20c02f	-0.15698312
130	0xbc2cd033	-0.010547685
131	0xbc4f4600	-0.012650967
132	0x3e264537	0.16237341
133	0x3e06176f	0.13094877
134	0xbe498f7d	-0.19683643
135	0x3e2f5dba	0.17125598
136	0x3e25686b	0.16153114
137	0x3ddca5f0	0.107738376
138	0xbe1cf17a	-0.15326491
139	0xbe1aa817	-0.15103184
140	0xbda8f497	-0.08249777
141	0x3d8347e3	0.06410196
142	0x3e2aa7e8	0.16665614
143	0x3d892d80	0.066981316
144	0xbc0ab333	-0.008465576
145	0x3e429ce0	0.19005156
146	0xbd8e5dcd	-0.06951485
147	0xbdde071d	-0.108412005
148	0x3e1566d0	0.14590001
149	0x3e03dc0d	0.12876911

conv1.bias f4 [6]
0	0x3e11692d	0.14200278
1	0xbcf6c900	-0.030125141
2	0xbd28bc27	-0.04119506
3	0xbbfbc700	-0.0076836348
4	0xbe328bb5	-0.17436107
5	0x3c3d2767	0.011545039

conv2.weight f4 [16, 6, 5, 5]
0	0x3d8b28e5	0.067949094
1	0xbd04566f	-0.032308992
2	0xbd9d4e33	-0.07680931
3	0xbda3a159	-0.07989759
4	0x3d13208f	0.035919722
5	0xbd00870c	-0.03137879
6	0x3d1844a1	0.037174825
7	0xbd93354e	-0.071879014
8	0x3d4c6e96	0.04991015
9	0x3c7b9eee	0.015357716
10	0x3ce9cef0	0.028541058
11	0x3c4e71c9	0.012600371
12	0x3bbc1537	0.0057398337
13	0x3ce3d136	0.02780972
14	0x3d9be4a8	0.07611972
15	0x3d290dec	0.041273043
16	0x3b4ceac4	0.003126786
17	0xbbbda922	-0.0057879845
18	0x3d6111e1	0.05494869
19	0xbda62621	-0.08112741
20	0x3d365249	0.044512067
21	0xbd128563	-0.03577174
22	0xbcefb82c	-0.029262625
23	0xbd20c910	-0.03925425
24	0x3cf54043	0.029937869
25	0x3b82446b	0.003975441
26	0xbd141412	-0.036151953
27	0x3d149de5	0.036283392
28	0xbd7f7159	-0.062363956
29	0x3cafaa3f	0.021443484
30	0x3da18167	0.0788601
31	0xbc917869	-0.017757611
32	0xbc5a2649	-0.013314792
33	0xbd57d1d8	-0.052690357
34	0xbda3b0a6	-0.079926774
35	0x3d71202f	0.058868583
36	0x3d752d25	0.059857506
37	0x3d3cfe04	0.046140686
38	0xbd587693	-0.052847456
39	0xbd9bfd93	-0.07616725
40	0x3da42ea9	0.08016712
41	0x3da56e65	0.08077697
42	0xbd27e574	-0.040990308
43	0xbc055d7b	-0.008139963
44	0x3c824665	0.015902707
45	0x3cea2009	0.028579729
46	0x3d902faf	0.07040345
47	0xbd870091	-0.06591905
48	0xbc237373	-0.009976256
49	0xbc7be240	-0.015373766
50	0xbcdd9049	-0.02704634
51	0xbb14c9e5	-0.0022703346
52	0xbc36b2ed	-0.011151058
53	0x3d50dc0c	0.050991103
54	0x3cc7e489	0.024400966
55	0xbcb85b23	-0.022504395
56	0xbd2e9c01	-0.042629246
57	0xbcfe7091	-0.031059535
58	0xbc17bb9a	-0.009261036
59	0xbd50f993	-0.051019263
60	0xbd980f77	-0.07424825
61	0xbd28b553	-0.04118855
62	0x3d86b40e	0.065773115
63	0x3d91f1ac	0.071261734
64	0xbd99d767	-0.07511788
65	0xbd038b30	-0.03211516
66	0xbd767395	-0.06016882
67	0x3c35e6c3	0.011102381
68	0x3d8f92c3	0.070104145
69	0x3d431067	0.047623064
70	0x3c185820	0.009298354
71	0xbd11cf2a	-0.035597958
72	0xbc91e501	-0.017809393
73	0x3d035eef	0.032072958
74	0x3d76bd4a	0.060239114
75	0xbc378fd4	-0.011203725
76	0x3d92202f	0.07135045
77	0x3d813d22	0.06310488
78	0x3d98650d	0.07441149
79	0xbd9d9a49	-0.07695443
80	0x39246432	0.00015677584
81	0x3d0aa167	0.03384533
82	0xbd82a9a3	-0.06380012
83	0x3d340050	0.04394561
84	0xbc8ec92a	-0.017429907
85	0xbd630cef	-0.055432256
86	0xbcd07fd0	-0.02545157
87	0xbd565e06	-0.05233576
88	0x3d47387e	0.04863786
89	0xbc8e94f8	-0.017405018
90	0x3c889139	0.01667081
91	0x3cbcf34d	0.023065234
92	0x3d855caf	0.065118186
93	0x3af82d90	0.0018934477
94	0xbd6c4036	-0.057678424
95	0xbd29103b	-0.041275244
96	0xbd016b9b	-0.03159676
97	0xbd103853	-0.035209965
98	0xbd58be8c	-0.052916095
99	0x3d67da26	0.056604527
100	0xbc1e3fbf	-0.009658753
101	0xbce8d34b	-0.028421065
102	0x3c912de8	0.017722085
103	0xbd91d48b	-0.071206175
104	0x3cd74541	0.02627814
105	0x3d9de871	0.0771035
106	0x3cfdeaaa	0.030995686
107	0x3c56ac39	0.0131025845
108	0x3b1ed973	0.0024238497
109	0xbd7f4422	-0.062320836
110	0xbd8a6090	-0.06756699
111	0x3d4fa8bf	0.05069804
112	0x3d2c91eb	0.042131346
113	0xbd00de99	-0.031462286
114	0x3d7ef1c0	0.06224227
115	0x3cfaeb81	0.030629875
116	0x3c80c9af	0.01572117
117	0xbc1f20b1	-0.009712384
118	0xbd6178cd	-0.055046845
119	0x3ca13b6f	0.01968166
120	0xbd6a4fc0	-0.05720496
121	0x3cc378d0	0.023861319
122	0xbd5a3d43	-0.05328108
123	0xbda44216	-0.080204174
124	0x3c480b7c	0.012209769
125	0xbd3ad886	-0.04561665
126	0xbcc033d2	-0.02346221
127	0x3cce8671	0.025210591
128	0xbd96db24	-0.073660165
129	0x3d983fba	0.0743403
130	0xbd84bc0c	-0.064811796
131	0x3d8189ef	0.06325137
132	0xbd85ee26	-0.06539564
133	0xbd4110fd	-0.047135342
134	0xbd6b736f	-0.057483133
135	0x3d02c079	0.031921837
136	0xbcf5f009	-0.030021684
137	0xbcf207e3	-0.029544776
138	0xbd827ea1	-0.06371809
139	0x3b6eece7	0.0036457123
140	0x3c019bb0	0.007910654
141	0x3cf205c3	0.029543763
142	0x3cd47ac2	0.025937442
143	0xbd9b943e	-0.07596634
144	0x3d0d5ca7	0.03451219
145	0x3d473515	0.048634607
146	0x3cb86577	0.02250932
147	0x3da4ada1	0.080409296
148	0x3d706042	0.05868555
149	0xbd9b5ae7	-0.075856976
150	0x3d94ebc2	0.0727153
151	0xbd96965d	-0.07352898
152	0x3d3b5483	0.045734894
153	0xbc9e2eb9	-0.019309388
154	0xbce10fcc	-0.027473353
155	0xbc4e7ac4	-0.012602512
156	0xbd79af43	-0.06095816
157	0x3d964f90	0.07339394
158	0xbc1285e5	-0.008943056
159	0x3cbf5d4f	0.023359923
160	0xbd002ebc	-0.03129457
161	0x3d7bb901	0.06145573
162	0x3d79e385	0.061007995
163	0xbad68590	-0.0016366709
164	0xbd4d38f4	-0.050103143
165	0x3bb5aff9	0.005544659
166	0xbc99244a	-0.018694062
167	0xbd37b21a	-0.044847585
168	0xbcef53d3	-0.029214775
169	0xbd89e2b8	-0.06732696
170	0x3c9f49fc	0.019444458
171	0xbcbe92d6	-0.023263376
172	0xbd4cd6f4	-0.050009683
173	0x3c142d01	0.009043933
174	0xbc2015ae	-0.009770794
175	0xbca670fa	-0.020317543
176	0x3d6293c2	0.055316694
177	0x3d8b4d43	0.06801846
178	0x3d9aeab2	0.07564296
179	0x3d99d81d	0.075119235
180	0xbc85d7d5	-0.016338268
181	0x3d6eb82e	0.058281116
182	0xbc20e5e3	-0.009820434
183	0x3d01f361	0.031726245
184	0xbd5c5ed5	-0.053801376
185	0x3cf3ab2d	0.029744709
186	0xbcf691f2	-0.030098889
187	0xbc722f3e	-0.014781771
188	0xbd259030	-0.04042071
189	0x3b776727	0.0037750693
190	0xbd223099	-0.039597128
191	0x3d86b4b8	0.06577438
192	0xbd3b1eeb	-0.045683783
193	0xbd0cbb6c	-0.034358427
194	0xbc51e9ee	-0.012812121
195	0x3cdc5d2e	0.0268999
196	0xbaa4c727	-0.0012571559
197	0xbcab1100	-0.02088213
198	0x3c7ba30d	0.015358699
199	0xbd8bea93	-0.06831851
200	0xbd838406	-0.06421666
201	0x3d1a3034	0.037643626
202	0xbd33ddac	-0.043912575
203	0xbd5fd7e0	-0.054649234
204	0x3d77a6d7	0.060461845
205	0x3cab89c8	0.020939723
206	0x3bf8a2e4	0.0075877775
207	0xbc92313f	-0.017845748
208	0x3d1cefba	0.03831456
209	0xbcc2bdc1	-0.023772122
210	0x3d8c080a	0.06837471
211	0xbd13829c	-0.03601323
212	0xbd43c737	-0.047797408
213	0x3d307ec5	0.043089647
214	0x3d8a3be0	0.067497015
215	0xbca909fe	-0.020634647
216	0x3ca8f6af	0.02062544
217	0x3d3f1c72	0.046657987
218	0xbc65be55	-0.0140224295
219	0x3bb0ac09	0.005391602
220	0xbbf332ee	-0.007421843
221	0x3da54011	0.0806886
222	0xbd5b9ca6	-0.05361619
223	0x3d3992db	0.045306068
224	0xbc8df997	-0.017330928
225	0xbcc51534	-0.024057962
226	0x3cd311f3	0.025765395
227	0x3d3a533e	0.045489542
228	0xbd7bf226	-0.061510228
229	0x3cc8a001	0.024490358
230	0x3d551846	0.052025102
231	0x3c9b39e9	0.018948512
232	0x3d0f3d16	0.034970365
233	0x3d87b235	0.06625787
234	0xbc72100d	-0.014774335
235	0xbd462658	-0.04837641
236	0xbcc1b25f	-0.023644624
237	0xbd323c35	-0.04351445
238	0x3c5d0957	0.013490996
239	0x3d9c22b7	0.07623809
240	0x3d92176e	0.07133375
241	0xbcdf47f8	-0.027255997
242	0xbd9972a4	-0.07492569
243	0xbd9ef67e	-0.077618584
244	0xbd2ea5b1	-0.042638484
245	0x3d99e767	0.075148396
246	0x3d70fec0	0.0588367
247	0x3d0ac290	0.033876956
248	0xbca47a96	-0.020077985
249	0x3c2ebf08	0.010665663
250	0x3b9ac660	0.004723355
251	0x3d27d232	0.040971942
252	0xbd47b640	-0.04875779
253	0xbc7f5083	-0.01558316
254	0xbd835db3	-0.06414356
255	0x3d5562e9	0.05209628

conv2.bias f4 [16]
0	0xbd638ebd	-0.055556048
1	0x3d3db8b3	0.04631872
2	0x3c650afd	0.013979671
3	0x3c1dabeb	0.009623508
4	0xbcf9fffc	-0.03051757
5	0x3d0c5484	0.034260288
6	0x3d2751e4	0.04084958
7	0xbd81b9ae	-0.06334244
8	0xbd6d8fdf	-0.057998534
9	0xbd8a804a	-0.067627504
10	0xbd8e1a0f	-0.06938564
11	0xbd6e93b6	-0.058246337
12	0x3d8f906c	0.07009968
13	0x3da497e4	0.08036783
14	0xbb832728	-0.0040024705
15	0x3d705ac2	0.058680303

fc1.bias f4 [120]
0	0x3cf56efa	0.029960144
1	0xbc9f4c1d	-0.019445473
2	0x3d3d02d8	0.04614529
3	0x3c90c7b0	0.017673343
4	0x3c0d75e7	0.008634067
5	0xbd2a4cd7	-0.041577186
6	0x3d2cd83a	0.042198397
7	0x3d2feaa0	0.042948365
8	0x3c8261da	0.0159158
9	0xbba1eac0	-0.0049413145
10	0x3cbe8ad3	0.023259556
11	0x3c78539a	0.015156651
12	0x3c8eac70	0.017416209
13	0x3cedd03d	0.02902996
14	0xbc9e9ad0	-0.01936093
15	0xbd0b7397	-0.034045782
16	0x3c01d28d	0.007923734
17	0x3bbd7380	0.005781591
18	0x3cde1547	0.027109755
19	0x3d0ba45b	0.03409229
20	0xbb983af3	-0.004645699
21	0xbc155673	-0.009114849
22	0x3d275ac3	0.04085804
23	0x3d15542b	0.036457222
24	0x3af0e69a	0.0018379271
25	0xbd2d3152	-0.042283364
26	0xbd09639b	-0.033542257
27	0x3c7d2dc7	0.015452809
28	0x3c9a082d	0.018802727
29	0xbbdfbab3	-0.006827676
30	0xbca29620	-0.019846976
31	0x3c7a61ba	0.015282089
32	0x3c1abb60	0.009444088
33	0x3cadb2c7	0.021203412
34	0x3bc3e733	0.005978489
35	0x3d4c08d3	0.049813103
36	0x3d1cb005	0.038253803
37	0x3bc01ecd	0.0058630467
38	0xbbad67a7	-0.0052918973
39	0xbc037367	-0.0080231195
40	0xbce3a08d	-0.027786518
41	0x3d3f21b0	0.046662986
42	0x3cf55b3a	0.029950727
43	0x3cc347f7	0.023838026
44	0xbd273b53	-0.04082806
45	0x3b4681cd	0.003028977
46	0xbd212e30	-0.03935069
47	0xbd1940b0	-0.037415206
48	0x3c6b5733	0.014364052
49	0xbd1c43f5	-0.038150746
50	0x3b1c4133	0.0023842573
51	0x3c86fcc3	0.016477948
52	0xbbc8ec67	-0.006131697
53	0xbbe3b333	-0.0069488524
54	0xbcfa20bd	-0.030533189
55	0xbca3b770	-0.01998493
56	0xbd3b12c0	-0.04567218
57	0x3c85dfda	0.016342092
58	0xbaae5700	-0.0013301075
59	0x3ab24f9a	0.0013604045
60	0x3d251345	0.04030158
61	0x3d4259bf	0.04744887
62	0x3d42543d	0.047443617
63	0x3d1d9198	0.038468927
64	0xbccfdbf7	-0.025373442
65	0xbc97b68a	-0.018519659
66	0xbd04adb8	-0.032392234
67	0xbcfeff47	-0.031127585
68	0x3d05c077	0.032654252
69	0x3caae3a7	0.020860506
70	0xbd126657	-0.03574213
71	0x3d3e37cf	0.046439942
72	0xbd09f698	-0.033682436
73	0xbcf8c537	-0.030367477
74	0xbcad98ed	-0.021191085
75	0x3ca59613	0.020213163
76	0x3cb64f6d	0.02225467
77	0x3ca1342d	0.0196782
78	0x3c2554a0	0.010090977
79	0x3d116250	0.03549415
80	0xbc6b7820	-0.014371902
81	0x3c9de217	0.019272847
82	0xbc4ed90d	-0.012624991
83	0x3d4c7538	0.049916476
84	0xbce7156a	-0.028208453
85	0x3d3510df	0.044205543
86	0xbc8b1357	-0.016976995
87	0x3d22fc88	0.039791614
88	0x3cdd0a4d	0.02698245
89	0x3bb8855a	0.005631131
90	0x3c090ec7	0.00836534
91	0x3b49e000	0.003080368
92	0xbc90c960	-0.017674148
93	0x3d3f18e7	0.046654608
94	0xbcfd0d17	-0.03089003
95	0x3cf7360d	0.03017714
96	0xbd3a54b5	-0.04549094
97	0x3bf46400	0.00745821
98	0xbc8100a3	-0.015747374
99	0xbbd394b3	-0.0064569353
100	0xbd3b5f50	-0.045745194
101	0x3c944183	0.018097645
102	0x3c9d4853	0.019199526
103	0xbc14f407	-0.009091384
104	0x3ceb27fd	0.028705591
105	0xbc8e2abd	-0.017354364
106	0x3cc1b5b3	0.023646211
107	0x3c6f5e60	0.014609903
108	0xbc8303e3	-0.015993064
109	0xbc46bd53	-0.012130099
110	0xbced332a	-0.028955061
111	0x3cddff43	0.027099257
112	0xbcf8b083	-0.030357605
113	0xbc4c0f73	-0.012454855
114	0xbc9eaaca	-0.019368548
115	0xbcc6e48a	-0.024278898
116	0xbcc4fd60	-0.0240466
117	0x3b8d7000	0.00431633
118	0x3d1ec3af	0.038760837
119	0x3c0f8c87	0.008761532

fc2.bias f4 [84]
0	0x3d401356	0.04689344
1	0xbc575364	-0.0131424405
2	0x3cc98530	0.024599642
3	0xbd8ddebc	-0.06927249
4	0xbc068d8a	-0.0082124565
5	0x3ced1a5d	0.028943235
6	0x3da237cf	0.07920801
7	0x3d9c839b	0.07642289
8	0x3cd29612	0.025706325
9	0x3c82677c	0.015918486
10	0x3d92f7df	0.07176184
11	0x3b6e8a22	0.0036398252
12	0xbcb24c06	-0.021764766
13	0x3d818fdf	0.06326269
14	0x3d80a492	0.06281389
15	0xbd498b51	-0.049205128
16	0x3d2685b7	0.040654864
17	0xbc3f7be4	-0.011687253
18	0x3dadcef0	0.08486736
19	0x3dae9616	0.0852472
20	0xbda3b6b7	-0.079938345
21	0xbd855014	-0.06509414
22	0xbc1b3c49	-0.009474822
23	0x3d4f08ce	0.050545506
24	0x3da75a12	0.081714764
25	0xbc7409b1	-0.014894889
26	0x3db17d93	0.086665295
27	0x3da862c2	0.082219616
28	0x3ce27571	0.027643891
29	0x3db4750b	0.08811387
30	0xbd84dfa3	-0.06487968
31	0xbc6189a0	-0.0137657225
32	0xbc21e1e0	-0.009880513
33	0x3d250736	0.04029008
34	0x3cbb64eb	0.02287527
35	0xbcd6d0ce	-0.026222613
36	0xbcbaf945	-0.02282394
37	0x3d37180e	0.044700675
38	0xbd535863	-0.051597964
39	0xbd7618bc	-0.060082182
40	0xbd678cd7	-0.0565308
41	0xbae78c5c	-0.0017665732
42	0xbd79da4f	-0.06099921
43	0xbc883a57	-0.016629381
44	0xbcc88f71	-0.02448246
45	0xbd41327b	-0.047167283
46	0x3d49e4cd	0.049290467
47	0x3da0cba8	0.07851344
48	0xbd57b280	-0.052660465
49	0xbd45e24a	-0.04831151
50	0x3da66a19	0.08125705
51	0x3cb9014b	0.022583624
52	0x3d90ebc1	0.070762165
53	0xbd387023	-0.045028817
54	0xbc825e03	-0.015913969
55	0x3da9bf0f	0.08288395
56	0x3d7d617e	0.061860554
57	0x3d7d1c7e	0.06179475
58	0xbda702dd	-0.08154843
59	0xbc1043bf	-0.008805214
60	0xbd7d27e1	-0.06180561
61	0x3bcdcb26	0.0062803207
62	0x3c91246d	0.017717564
63	0xbc960f00	-0.0183177
64	0x3d553894	0.05205591
65	0x3c0c6704	0.008569483
66	0xbcf86ab8	-0.030324325
67	0xbd34c86c	-0.04413645
68	0x3c23d3cd	0.009999228
69	0xbce7ad05	-0.028280744
70	0xbcd9cbe0	-0.026586473
71	0x3d83a2ae	0.06427513
72	0x3c196ae7	0.009363866
73	0xbd2ca63e	-0.04215073
74	0x3d6afffc	0.057373032
75	0xbd61ab5b	-0.055095058
76	0x3d1ffad3	0.039057564
77	0xbb902d32	-0.004399919
78	0x3c858ebc	0.016303413
79	0xbbd4d9d0	-0.006495692
80	0xbd506f68	-0.050887495
81	0xbd8119ab	-0.06303724
82	0x3c5d4453	0.013505059
83	0xbce2c42d	-0.027681435

fc3.bias f4 [10]
0	0x3da24a9b	0.07924386
1	0xbd2b8a24	-0.041879788
2	0xbd5f0452	-0.05444748
3	0xbd4373eb	-0.04771797
4	0x3cb2085d	0.021732504
5	0xbd3920cf	-0.045197304
6	0xbdd9a87d	-0.1062784
7	0x3dd69d39	0.104792066
8	0x3d89a252	0.06720413
9	0x3d3efc44	0.046627298
